last_brain.pth (torch_old, 384189 bytes, 18 tensors)

fc1.weight f4 [200, 5]
00000000: ecc6 babe dee4 2dbd da75 d7bd 28c2 0d3f
00000010: b757 053e 6187 1bbf d712 563e b440 5ac0
00000020: e3e9 da3e a763 1cbf 9177 81bc 0da7 8ebe
00000030: 196d 87bd 66bb 5fbe 8ee5 58bd 9f35 b6be
00000040: 337e 623f 1686 57bf bff5 adbd fee6 d1bc
00000050: 4c16 7e3d 2695 72be af71 523d e1c6 60be
00000060: 35fd 523d 85e1 c2be 32c9 2ec0 c78d bb3e
00000070: db51 58bc 6a0a fe3e e57a a93d 3663 c4bd
00000080: 88e3 063e 7262 3dbf b77c 493f fc22 013f
00000090: 82d4 c83e a860 b8bf 90bf 05bf 047a fa3e
000000a0: 1130 abbe 2d51 58bd 6c4c 1c3e 3414 33bd
000000b0: 90f1 5c3d 2cf7 993e 0150 ef3e a40a 123f
000000c0: 5cd0 2bbe ea6a 5ebc beb6 04bf 4604 a73c
000000d0: 07d7 dabc 3782 cbbc d4bc 95bd aebe a63e
000000e0: 78d2 04be 965b 3f3e d0b6 37be 699b 3dbe
000000f0: 89d7 b53e f0f4 19c0 88f3 b93d 0b6d e63e
00000100: 2ca9 eb3b 0bc1 85bf 2646 ce3e a1a6 9bbf
00000110: b8b4 e3be 3edf c83e 912b ebbd 4b61 96bd
00000120: 9026 ee3d 29ac 63bd d189 dcbe 9484 ccbd
00000130: 89c7 003e 0f58 943c c18c 573d f132 3bbd
00000140: f808 663e 1234 de3d d09d 573e 05de bd3d
00000150: 1f1b 083e ce0a 1dbf dbf4 34c0 c98d 22c0
00000160: 7080 93be 4900 103e 5ef3 9ec0 9b0d aa3d
00000170: c7c0 1e3e 6bd2 70be 5132 01bf 91fe 86bd
00000180: 6c8e 2e3f 548c 663e 0adb 0d3f 3fe5 90be
00000190: efee bfbe 7fa9 f53d effc bdbd 78cc 083e
000001a0: 584d 35be 1bb8 cbbd 47c7 d43e 635d dbbe
000001b0: 50a7 cabe e8c0 b43e 5008 d2be 29b1 25be
000001c0: 093e 05be 66f2 c73d f321 fb3d b8bf a6be
000001d0: d7f6 52be 8813 41be 943e 89be 80a4 7c3d
000001e0: d110 7d3f 70d5 85be 37cf a9bf b607 e43d
000001f0: 259e 36be 0465 f3be 5e03 39bc 029b 4f3d
00000200: 2838 1c3e d72b 063e 8d6c a5be 1e65 16be
00000210: ec82 153e daba a23e 5e76 6d3e a190 233e
00000220: 93e7 1dbf 05f2 563e 03aa 123f 6b81 33bf
00000230: 8c8c 1ebe d3c3 a3be b27c 20be 02b4 533e
00000240: e7e7 a1be 6a3b b2bf 5ca5 a4be 4821 6b3f
00000250: 783e b33b cabe 01be 7a3a ad3e 3aea 9dbc
00000260: 1380 03be 3cdf 0dbf e8e7 093f 6e9d b6bb
00000270: 7c6a f23e 2669 37c0 1477 323e 717b 073e
00000280: 7566 edbe ff33 a9be 2214 47bf a777 4c3f
00000290: 2d31 20bf 049b 293f 974b 17bf 266d 933e
000002a0: ba4f 5fbe 01a6 503c 2ac0 29be bb56 e1be
000002b0: f63b a1be 1888 a1be 26f7 afbe 3ae9 f53d
000002c0: 4db2 823d 4610 293e 873b 093d 65e4 65bd
000002d0: d144 1dc1 65aa 1fc0 6763 fec0 41b4 8ebe
000002e0: 27a2 9cbe 6b4d 1e3c f634 9f3c d32d f1be
000002f0: d91b 633e efee dc3e 0922 16bd 45e5 d7bd
00000300: 8912 363e cc41 94be 8bc5 75be 30ec 82bf
00000310: 2672 a2bf 188d 34c0 9c4f e7be eda4 d53e
00000320: 3d90 52bf 6131 f03e f875 1dbe d2b2 e63e
00000330: 56e1 0fbf 827e 78bd 0495 ab3e 7b1c 0f3f
00000340: 5595 44bf 1129 283f 5f65 e2be 3b6d c6be
00000350: 775f cdbe 880e 823e e449 8c3e ee46 17be
00000360: 445f 5cbd 5696 8e3e eb85 b43e 2b65 ff3c
00000370: eda5 edbd 92c3 5bbf 14d4 c1bf e752 b13e
00000380: 0939 c3be 11cb 1c3f 48b0 ec3e 943f 6cbf
00000390: 7d76 95be 7027 033f 1d7e 41bf e1a7 89bd
000003a0: f331 2c3f aa27 7dbe a9fc 163f 042a b93e
000003b0: 041d 083e 1886 e6bf 15dd cf3e 0191 38bf
000003c0: 94ba 9dbe 5618 b1c0 46ae 5dbf 5718 34bf
000003d0: 91bc 953d 026c ef3d 6408 023f fa5c 0dbf
000003e0: 698d 02bf 8fa0 203f ae83 623c 232c 4fc0
000003f0: 6865 233f 967c d73d fecd 7d3e 6adc 1ebd
-0.3647989 -0.042454593 -0.10520525 0.55374384 0.13021742 -0.60753447 0.20905624 -3.4101992
0.42756566 -0.6108956 -0.015804084 -0.27861825 -0.066126056 -0.2184883 -0.052953295 -0.35587785
0.88473815 -0.84188974 -0.08494138 -0.025622841 0.062032983 -0.23689708 0.05137795 -0.21950866
0.05151101 -0.38062683 -2.73103 0.36631605 -0.01320311 0.4961732 0.082753934 -0.095892355
0.13172734 -0.7397834 0.78705925 0.50444007 0.3922463 -1.4404497 -0.52245426 0.48921216
-0.3343511 -0.05281179 0.15263528 -0.04372044 0.05394131 0.3007139 0.46740726 0.57047486
-0.16778702 -0.013575295 -0.5184134 0.02038778 -0.026713861 -0.024842365 -0.07311407 0.32567352
-0.12970912 0.18687281 -0.17940831 -0.18516316 0.35516003 -2.4055748 0.09079653 0.45005068
0.0071917977 -1.0449537 0.40287894 -1.2160226 -0.44473815 0.3923282 -0.11482919 -0.07342776
0.11628449 -0.055584107 -0.43073896 -0.09986225 0.12576117 0.018108396 0.052624468 -0.04570288
0.22464359 0.108497754 0.21056294 0.092708625 0.13291596 -0.6134461 -2.8274448 -2.5399039
-0.28808928 0.14062609 -4.967208 0.08303376 0.15503226 -0.23517768 -0.504674 -0.065915234
0.6818607 0.22514468 0.5541235 -0.282999 -0.3748698 0.119952194 -0.09276759 0.13359249
-0.17705286 -0.09947225 0.41558287 -0.42844686 -0.39580774 0.35303426 -0.41021967 -0.16180862
-0.13011946 0.09763031 0.12262335 -0.32568145 -0.20601974 -0.18855107 -0.26805556 0.061680317
0.98853785 -0.26139402 -1.3266362 0.11134283 -0.17833765 -0.47538006 -0.011292307 0.050684936
0.15255797 0.13102661 -0.3230938 -0.1468701 0.14600724 0.3178318 0.23189685 0.1597314
-0.6168148 0.2099076 0.5729067 -0.7011935 -0.15483302 -0.3198534 -0.15672567 0.20674136
-0.3162224 -1.3924382 -0.3215741 0.9184766 0.0054700933 -0.12670437 0.33833677 -0.019276727
-0.12841825 -0.55418754 0.53869486 -0.0055729663 0.47346866 -2.8657928 0.17428237 0.13230683
-0.4636723 -0.33047482 -0.77765095 0.79870075 -0.62575036 0.6625216 -0.59099716 0.2879421
-0.21807757 0.012734891 -0.16577211 -0.44011483 -0.3149106 -0.31549144 -0.34368247 0.12007375
0.063816644 0.16510114 0.033504035 -0.056126017 -9.829301 -2.494775 -7.949634 -0.27871898
-0.30592462 0.009662013 0.019434433 -0.47105274 0.22178592 0.43151042 -0.036653552 -0.105417766
0.17780508 -0.2895645 -0.24001138 -1.0228329 -1.2691085 -2.8211117 -0.45177925 0.4172739
-0.8225134 0.46912673 -0.15377033 0.45058304 -0.5620321 -0.060667522 0.33512127 0.5590283
-0.7679036 0.6568766 -0.44217965 -0.3875521 -0.40111896 0.2540171 0.27400124 -0.14773151
-0.05380179 0.27849072 0.3525842 0.03117617 -0.116039135 -0.8584529 -1.5142846 0.34633562
-0.38129452 0.61247355 0.46228242 -0.9228451 -0.29191962 0.5123205 -0.7558306 -0.067214735
0.67263716 -0.24722162 0.5897928 0.36164868 0.13292319 -1.8009672 0.4059836 -0.7209626
-0.3080641 -5.5342207 -0.86594045 -0.7034964 0.07311357 0.11690523 0.50794053 -0.55219996
-0.50997025 0.6274499 0.01382534 -3.237069 0.6382661 0.1052181 0.24785611 -0.038784422

fc1.bias f4 [200]
00000000: f68d dabe 1718 4abf 069e 35be 1ba9 fcbe
00000010: e74b c3be 5b5e 723e c534 0bbf 52a8 3ebf
00000020: 98d9 fbbe b532 353e d0b5 1ebe 94a4 05bf
00000030: caf8 8dbc c7db 123e 9eaa fdbe f61b 91be
00000040: 77a7 17bf 4a00 bfbe cdaf 543e 91f9 45bf
00000050: 21b9 d5be 1724 ea3c e6a6 28bd 4119 c6be
00000060: aab0 e9bd 5739 a6bd ae15 6fbe 6752 70bf
00000070: e943 08bf 8890 4cbf 115a 91be 748c 0b3d
00000080: 0b8c 9cbe 7e26 b6be d19d c6be d54c ecbe
00000090: a438 cf3d 8cf7 76be 4334 70be d60d 3ebf
000000a0: ed24 74bf 0b32 0cbf d2b0 adbe 3f09 24bf
000000b0: 3bd8 3bbf f76e c5be a15a c2be 7faf 20bf
000000c0: 3741 a3be 61f4 49bd d809 12bf 0716 3bbd
000000d0: 9285 8abe fc76 5cbe 55a4 3cbf e485 363e
000000e0: 072a 11bf 7fb7 55be 3ad6 903e 07e2 00be
000000f0: b681 9fbd 9295 e4bd 07a9 b5be 8b84 27be
00000100: 52e6 753e 975d d4be 912a 2cbc 2100 32be
00000110: 4bdd 85be 1602 35bf 3592 b1bd 9ff3 2ebf
00000120: 75ce 37be 47ff eebd bcf6 7cbe 6746 9fbe
00000130: f36b 96be ded5 fdbd 661f cc3e 3893 2dbe
00000140: 35e9 06bd f202 1abf 2f00 093d 775c 4fbf
00000150: 4f49 82be 985f 95be 64a3 ad3e 9b20 6cbe
00000160: 8709 7dbe 3526 0dbf 7903 2cbe 23fe db3e
00000170: 7ad0 46bd 666f 3fbf fe27 93be ab7f 073e
00000180: b2e9 8c3d 344f b6be 787b 46bd 8842 60be
00000190: 4d65 3c3e 152c babe 0f86 6bbe 32ed 55bf
000001a0: 483e 8fbe 936f d9bd 5e6b edbe 01a7 043d
000001b0: 7e85 9bbe 520b 37bf af3b 0bbe 0cf3 fabe
000001c0: c653 1ebf 3ff4 f5be c6ed 5abf ffa0 f1bd
000001d0: 6322 723d 6e1d 263e 4f2e c3be e612 10bf
000001e0: aec4 033e ca83 98bf 074b 043e e0a0 09bf
000001f0: 25da aebe 0b8d eebe cd24 d5be d17d 2b3d
00000200: fe8c b4bd 22de 62bf e4e6 55bd 0366 5bbf
00000210: e807 9fbc 6c3d 80be d141 6bbf a0aa e2bc
00000220: 033e 99be 6f48 e73c de8b de3d c86b 963d
00000230: fc0d 2abd 472e 043e 6983 b93c 336a 7bbe
00000240: 66f6 12be 9d7a a23e dc0b 70bd c65e 1abf
00000250: 4669 a4be a9c5 c7be 6bd0 a2be 9129 0ebf
00000260: 4ffb f7be eb38 8bbe f3f4 8ebf bbb0 01bf
00000270: 2e08 e6be 0d02 b3be 2d53 f93d bbb5 3fbe
00000280: c9ce 99be 0806 2f3f 963d 7dbe 4f81 f8be
00000290: c288 d8be 0065 76be 0bd2 73be 855b 01bf
000002a0: a221 92bd 9688 d1be 50ce c63e e219 7bbf
000002b0: 17ae 05bf cffe 6d3e 4d91 89be 23a7 db3e
000002c0: 5427 93bd 820b 8ebe 4703 a7bd 89de bebe
000002d0: 6e41 28be e216 15bf 195e 96be 0898 1abf
000002e0: d22d efbe e2dd 47be b3de d63d 375a 0b3e
000002f0: 603b b13d ecf3 18bf abf0 3bbe 065e fcbe
00000300: 7fd8 f7bd 72f2 70be 5e79 30bf a484 27bf
00000310: 2515 8cbe 64be 39be c05c 293e 6d4e 93be
-0.42686433 -0.7894301 -0.17736062 -0.49347767 -0.38143846 0.23668806 -0.54377395 -0.74475586
-0.49189448 0.17695124 -0.15499043 -0.5220425 -0.017330546 0.14341651 -0.49544233 -0.28341645
-0.59239906 -0.37304908 0.20770188 -0.77333933 -0.41742805 0.028581662 -0.04117479 -0.38691142
-0.11410649 -0.081164055 -0.23348114 -0.93875736 -0.5322862 -0.7990804 -0.28389028 0.034069493
-0.30575594 -0.35576242 -0.3879228 -0.46152368 0.10118225 -0.24117869 -0.23457436 -0.7423986
-0.95368844 -0.5476386 -0.33923966 -0.6407661 -0.73376817 -0.38561222 -0.3795977 -0.62767786
-0.31885692 -0.049305324 -0.5704627 -0.045675304 -0.2705503 -0.21529764 -0.7368825 0.17824513
-0.56704754 -0.2087078 0.28288442 -0.12586223 -0.07788412 -0.11161341 -0.3548052 -0.16359155
0.24013641 -0.41477653 -0.0105081955 -0.17382862 -0.26145396 -0.7070631 -0.08670465 -0.68340486
-0.17949851 -0.11669784 -0.24703497 -0.311084 -0.29379234 -0.123943076 0.39867705 -0.16950691
-0.032937247 -0.60160744 0.03344744 -0.81000465 -0.25446555 -0.29174495 0.3391372 -0.23059313
-0.24710666 -0.55136424 -0.167982 0.42967328 -0.048538662 -0.74779356 -0.2874145 0.13232295
0.06880511 -0.35607302 -0.048457593 -0.2190038 0.18398018 -0.36361757 -0.23000358 -0.83565056
-0.27977204 -0.10616984 -0.46370977 0.03238583 -0.30375284 -0.7150165 -0.13596986 -0.49013555
-0.6184658 -0.48037907 -0.85519063 -0.11798286 0.059114825 0.16222164 -0.38121268 -0.56278837
0.12867996 -1.1915219 0.12919246 -0.537611 -0.34150806 -0.46591982 -0.4162964 0.041868035
-0.088159546 -0.886202 -0.052222148 -0.8570253 -0.01941295 -0.2504686 -0.918973 -0.027669251
-0.29930124 0.028232781 0.10866521 0.073447764 -0.041517243 0.12908278 0.022645669 -0.2455223
-0.14351806 0.31734172 -0.05860506 -0.6030086 -0.32111567 -0.3901799 -0.31799635 -0.55532175
-0.4843392 -0.27191862 -1.1168503 -0.50660294 -0.44928116 -0.34962502 0.12174068 -0.18721668
-0.30040577 0.6836858 -0.24730524 -0.48536155 -0.42291838 -0.24061966 -0.23810594 -0.5053027
-0.07135321 -0.4092452 0.3882928 -0.9808637 -0.52218765 0.23241733 -0.26868668 0.42900953
-0.071852356 -0.27743155 -0.08154922 -0.37279156 -0.1643121 -0.5823804 -0.29368666 -0.6038823
-0.46714646 -0.19518235 0.10491695 0.13608633 0.08653903 -0.59747195 -0.18353526 -0.49290484
-0.1210184 -0.23529986 -0.6893519 -0.6543677 -0.27359882 -0.18139035 0.16539288 -0.28770772

fc2.weight f4 [150, 200]
00000000: 689c 0f3c acaa 373d ce63 3fbc e07d 413b
00000010: d1ca 85ba 25f1 4dbd 947d 06be 1bf6 19bc
00000020: a62d 7d3d 48e5 73bd 479c 883c 67c8 ea3c
00000030: 69a8 c2bd 381a 7abd 4531 883d 5086 95bc
00000040: 9997 a4bc 868f 95bc 1297 a5bd a192 4fbd
00000050: b002 d6bb 8198 dfbd dd61 963c f011 f3bb
00000060: 0c5f 62bd 044f 4ebc dffb 0bbd 52d1 0d3d
00000070: 786f ccbc 21c2 f2bc d768 50bd afe8 163d
00000080: 7e1a 36bc f763 113c f2c5 d7bc 862f 55bd
00000090: a533 2abc cfa5 86bd f3f5 203d 60b2 203d
000000a0: 1cf7 fabc 72ed 9fbd b69e 35bd ac1f 57bc
000000b0: 0f15 8cbd f582 ad3a bf23 34bc f09f 04bd
000000c0: 79b5 b7bd afb2 9dbd 820e 13be 6604 d5bc
000000d0: 0773 463c 270f b3bd d453 2cbc 1a72 c4bb
000000e0: dea5 dc3c c1fc e9bc 10e1 30be 37ca 383d
000000f0: 1577 fabd 5278 d13c c81b 0cbe f1f1 0cbd
00000100: ab13 08be 64c0 21bc 1602 87bd 259f bbbd
00000110: bc13 853c a43f 213d 8485 2ebd 4f54 423c
00000120: cf33 9e3c 1d64 60bd 5c9a 76bc dfa1 863d
00000130: c274 403d 8a8a b43c d69e b8bd 9e87 84bd
00000140: 9154 dbbc 822f 36bd 5ca7 a03b fe1c 8dbc
00000150: d2f7 9ebd 75f4 ecbc fbea 74bd efea d83c
00000160: 7618 a3bd 698b 093d 26ed 09be c218 e6bb
00000170: 9f0b b3bc e9f0 f73c 1e8d 3d3d 30b8 453c
00000180: 2f66 53bd 98a6 2a3d 383c 113d dad2 733d
00000190: bdd0 02be a3a2 71bd f873 d53c 3f36 67bd
000001a0: 3fef 5cbd cf99 ac3c ecee 373d 5c51 06bd
000001b0: 34bf 55bd cb33 883d 9df2 afbd deb9 463d
000001c0: 48e7 223c 84e4 c7bc 00c9 93bc 905c 883b
000001d0: 9ba5 ffbd 1114 38be 1e73 0a3d e584 e6bc
000001e0: e559 d6bd 0555 8fbd d227 11bc df40 aabc
000001f0: a640 0ebd 6e1d e5bc 9acf 2cbe 53ea 47be
00000200: b9ec abbd 8ab4 bbbc d6ca 45bd c260 263c
00000210: e5e1 bb3b 5734 883c aaf4 4bbd 588a 2b3d
00000220: 924b 66bd 4719 4d3a 758d 8ebd 4326 30bd
00000230: 43b8 833c 9567 823c 4a20 9fbb faae 0d3d
00000240: a493 acbb 6c30 bfbd e20a 73bc d32d ab3c
00000250: 0899 9bbd a0f8 42bd b960 7ebd c8ff 49bd
00000260: 0c76 063d 00f1 4e3d 53e9 a4bd ec09 86bd
00000270: d047 453d be34 1d3d 17b1 debd 3dfc 433d
00000280: e52f 903d 2a86 1cbe ff24 28bd 2957 58bd
00000290: 1d05 e1bb 498d a0bd 5443 6cbd 2fea 653c
000002a0: 6c42 1fbd 3c75 13bd 030b 95bd 3e73 1dbd
000002b0: 3601 c7bc b547 aebd 6eb8 98bd 17af 3fbd
000002c0: 1041 d7bd c4aa e0bc 12e7 0abd e06d 8abb
000002d0: a7a1 4ebc 4035 75bd 5c7d 05bd 7e63 263d
000002e0: 9dd4 3f3d 1b0c 6dbd 3873 bbbd 25f2 6cbd
000002f0: ac35 04be 0601 323d 142c 25bd f2b5 183c
00000300: 57f4 103d c96f 07bc b8ba 71bc 2dc0 6c3c
00000310: 8a3e 7c3d ac55 00bd 2304 fabd 506c 133c
00000320: ac28 49be 3cd2 37bd 2463 783c 064c 3f3d
00000330: 8ecf febc 540f 323d 1cd1 7cbd 973c 51bc
00000340: b05a b5bc 2efb fa3b 69c2 83bd 8669 143d
00000350: 1284 a1bd 780d 9bbd e44b 833c 0f70 fcbc
00000360: ba44 b5bd b491 adbd fd70 4bbe 336a 3bbe
00000370: b1a5 8d3d 56c8 52bd 55f0 85bd a8ef c2bc
00000380: 041e f8bd c5b5 9b3d 70c1 4dbd d1f0 26be
00000390: 80ec ba3c d5f9 70bd 17da b8bc cd18 3f3d
000003a0: b480 35bd ca20 f5bc 4c02 463d 0e04 42bb
000003b0: ece8 2ebe d0b2 e6bc cb2c 023d 0a3c 85bd
000003c0: d39f 01be 8542 d7bd 1af9 31bd a82c 273d
000003d0: 4000 cf3c d0cb e8bc 3bb2 77bd 170d 27bd
000003e0: 7c97 83bd fb7c d2bd f218 a7bd 059c 0f3d
000003f0: ca4e 8bbd c8e2 83bc ff87 13bd c578 44bd
0.0087653175 0.0448405 -0.01168151 0.002952449 -0.0010207539 -0.0502788 -0.13133842 -0.009397055
0.061811112 -0.05954483 0.016676081 0.028660012 -0.09504778 -0.06106016 0.066500224 -0.018252522
-0.020091819 -0.018256914 -0.08085455 -0.050676946 -0.006531082 -0.1091776 0.018357212 -0.00741791
-0.055266425 -0.012592081 -0.03417575 0.03462345 -0.024955496 -0.029633584 -0.050881233 0.036842998
-0.011114715 0.008873931 -0.026339505 -0.052047275 -0.01038829 -0.06574594 0.039297055 0.03923261
-0.030635409 -0.07808961 -0.04434081 -0.01313011 -0.06839954 0.0013237881 -0.010994851 -0.03237909
-0.0897016 -0.07700097 -0.14361003 -0.026003074 0.012112386 -0.087431245 -0.010518033 -0.0059950473
0.02693456 -0.028562905 -0.17273355 0.045114722 -0.12229744 0.025570069 -0.13682473 -0.03441042
-0.13288753 -0.00987253 -0.06592195 -0.09161214 0.016244762 0.039367333 -0.0426078 0.011860921
0.019311814 -0.054782975 -0.015051451 0.06573843 0.04698635 0.022038717 -0.090146706 -0.064711794
-0.026773723 -0.0444789 0.0049027633 -0.017225739 -0.07762112 -0.02892516 -0.059794407 0.026479213
-0.0796365 0.033580218 -0.13469371 -0.0070219943 -0.021856127 0.030266242 0.046277158 0.0120678395
-0.05161112 0.041662782 0.03545782 0.059527256 -0.1277494 -0.058992993 0.026056275 -0.056448217
-0.0539391 0.021069435 0.044905588 -0.032792434 -0.0521843 0.06650504 -0.08591197 0.0485171
0.009942837 -0.024400957 -0.01804018 0.004161425 -0.124827586 -0.17976405 0.03380119 -0.02813954
-0.10466365 -0.06998638 -0.008859592 -0.020782886 -0.034729622 -0.027968135 -0.16876069 -0.19522981
-0.08394761 -0.022913236 -0.048289143 0.010154905 0.005733716 0.01662652 -0.049793877 0.04187998
-0.056224413 0.0007823896 -0.069605745 -0.04300524 0.016079074 0.015918532 -0.004856144 0.0345907
-0.0052666236 -0.093354076 -0.014834138 0.020895874 -0.07597548 -0.04760039 -0.06210396 -0.049316198
0.032827422 0.050522804 -0.080523156 -0.06544861 0.04816419 0.038380377 -0.10873621 0.047847975
0.07040385 -0.15285555 -0.041050907 -0.052817497 -0.0068670646 -0.07839448 -0.057681397 0.0140328845
-0.038881704 -0.036000475 -0.07277491 -0.03843998 -0.02429257 -0.08509771 -0.07457052 -0.046797838
-0.105104566 -0.027425177 -0.033911772 -0.004224524 -0.012611783 -0.059865236 -0.032590255 0.040622227
0.046833623 -0.057872873 -0.091528356 -0.057848115 -0.12911099 0.043458007 -0.04032524 0.009320723
0.03538927 -0.008266398 -0.01475399 0.014450115 0.06158308 -0.031331703 -0.1220782 0.008997992
-0.19644421 -0.04487823 0.015160356 0.04670336 -0.03110483 0.04347165 -0.06172286 -0.012770793
-0.02213797 0.0076593375 -0.06433565 0.036233447 -0.078865185 -0.07570928 0.016027398 -0.030815152
-0.08850999 -0.08475056 -0.1986732 -0.1830223 0.06916369 -0.051460586 -0.0653998 -0.023795918
-0.121151 0.07603029 -0.050233305 -0.16302802 0.02281785 -0.05883201 -0.02256493 0.04665451
-0.044312194 -0.029922862 0.048342034 -0.0029604468 -0.1708104 -0.028161436 0.031781 -0.06505592
-0.12658624 -0.105107345 -0.043450452 0.040814072 0.025268674 -0.028417498 -0.06047271 -0.040783968
-0.06425378 -0.102777444 -0.08159055 0.0350609 -0.06802137 -0.016099349 -0.036018368 -0.047966737

fc2.bias f4 [150]
00000000: 19aa e2bd 4467 2dbd 9c7a 04be 5c37 a9bd
00000010: 28bd e6bd dad1 d8bd 74fc 86bd d7b3 39bf
00000020: 4e7a abbe 21dc c8bd 5f4e bfbc 6233 f5bd
00000030: 6af1 4ebd 8f34 04be 828d 28bf e1a9 83bd
00000040: c1b8 55bd 833a 653e 55d5 bebd 8fbf a6bd
00000050: 5c29 1fbd 1d2c 83bd 70eb d2bd 5282 7b3e
00000060: 581f 28be e139 75be 4f1b b3bd d0e3 cebd
00000070: c840 6e3d 5019 a6be 3796 00be d1f4 abbc
00000080: c554 1fbd 521b 89be 8b94 663e 653e b03e
00000090: c4bf bb3e c1de a9bd f347 61bd 35a4 813e
000000a0: 17bb 243f 951c aebb 36ca 14bc 555d 75bd
000000b0: fec2 06bd 660a 99be ba2c c3bd d1bb 3abd
000000c0: ab4a 80bd 9913 37bf 120e e53e 7d00 dbbd
000000d0: 09c1 51bd e0b4 28bd 9d58 ed3e 9b14 eabd
000000e0: b1f0 013b e5bf 40bd aee0 a0bd a195 bdbd
000000f0: 4f8c bbbd 62aa 88bd 1d84 5f3e 9336 3bbe
00000100: 2215 bdbd b9b2 cbbd f9c0 be3e 6eb1 adbd
00000110: 371b f5bd 9300 4dbd 4431 bfbd 979b eebd
00000120: e3d7 60bd 1fd2 55bd c8d3 80bd 6f06 98bd
00000130: 3bf0 9ebd 901b bebd a6d4 083e 28c0 6fbd
00000140: 4349 38be 5d63 dcbc f41a 1a3f 9b3f 27be
00000150: 1295 16be d039 59be 1045 febd aafc f8bc
00000160: bdcd 05be f734 2dbd 8b72 eebd 5e22 b1bd
00000170: ad3b 6cbd 8227 9abd 651a d7bd 4dbc 92bd
00000180: 8e60 b4be c677 14be a780 00be c525 31be
00000190: c711 69bd 93fe 34be 3de3 91bd c866 3dbd
000001a0: 4727 b6bd b07f f8bb e9a3 43be 0686 4dbd
000001b0: 122e 01be e762 243f 2a4a 51bd e5b0 fabc
000001c0: 15dd b8bd 02c1 dfbd dc04 18bd 4d94 c0bd
000001d0: 5550 e83e e8ea 54bd cedb fcbd 7220 f13d
000001e0: e559 b2bd f38c 7ebd ce60 86bd f8d7 eebd
000001f0: 20e0 12be 4c17 b8bb b1bd 91bd 200b 373e
00000200: a5bc 47ba c6ae f9bd afb4 22be 7e4a 69be
00000210: c0fc 6dbe 0b70 a5bd 9694 1dbc b5f5 8ebd
00000220: 5fcd a5be 2a0d eabd 2e88 253e 687c aabc
00000230: 6b50 a0bc e9d0 d03e b0d7 36bd 3aaa 89bd
00000240: c8c7 d2bc e5fd 83bd 191d 44bd 6ca7 d5bd
00000250: ac67 7aba 96cb cdbd
-0.110676 -0.04233481 -0.12937397 -0.08262512 -0.112665474 -0.10586901 -0.0659112 -0.7254004
-0.3349175 -0.09807611 -0.0233528 -0.11972691 -0.0505232 -0.12910675 -0.65840924 -0.06428886
-0.05217815 0.22385602 -0.093180336 -0.08142006 -0.038857803 -0.06404898 -0.102988124 0.24561432
-0.16418207 -0.2394786 -0.08745443 -0.101020455 0.05816725 -0.32441187 -0.12557302 -0.020990761
-0.038899202 -0.26778656 0.22517602 0.34422603 0.36669743 -0.0829444 -0.055000257 0.25320593
0.64347976 -0.005313466 -0.009081414 -0.05990346 -0.032900803 -0.29890746 -0.09530015 -0.045589272
-0.06264242 -0.7151428 0.44737297 -0.106934525 -0.051209483 -0.04118812 0.4635667 -0.114297114
0.00198273 -0.047058005 -0.07855354 -0.09257055 -0.09157621 -0.06673123 0.21827741 -0.18282537
-0.092325464 -0.09946198 0.372566 -0.08481108 -0.119680814 -0.050049376 -0.093355685 -0.1165077
-0.054893386 -0.05220234 -0.06290394 -0.07423102 -0.07760664 -0.09282601 0.13362369 -0.058532864
-0.17996697 -0.026902849 0.6019738 -0.16332857 -0.14705303 -0.2121346 -0.124155164 -0.030393917
-0.13066764 -0.04228684 -0.11642941 -0.08649133 -0.0576741 -0.07527067 -0.10503081 -0.07164822
-0.35229915 -0.14498815 -0.12549077 -0.17299564 -0.05690172 -0.17675237 -0.071234204 -0.046240598
-0.0889421 -0.007583581 -0.19105496 -0.050176643 -0.1261523 0.64213413 -0.05109612 -0.030601928
-0.09026543 -0.10925485 -0.03711401 -0.09403286 0.45373788 -0.051981837 -0.12346612 0.117737666
-0.08708552 -0.06214614 -0.06561433 -0.116622865 -0.1434331 -0.0056180116 -0.07116259 0.17875338
-0.0007619358 -0.121915385 -0.15889238 -0.22782323 -0.23240948 -0.08078011 -0.009617945 -0.06980459
-0.32383248 -0.11428292 0.1616523 -0.020811275 -0.019569596 0.40784386 -0.04463929 -0.06721921
-0.025730029 -0.06444911 -0.047879312 -0.10432324 -0.00095521915 -0.100485966

fc3.weight f4 [3, 150]
00000000: b1af 6e3c 79a2 11bd bdd1 64bb 8a38 e53c
00000010: 5efb 96bc f92f 7cbd fc31 5d3d 56b2 d03e
00000020: c19c d4bd e357 18bd a11d 063b ff92 84bc
00000030: 6c6d 573d ce76 75bc 3a83 943e 3095 c63b
00000040: aff2 a5bc 927b a6bf 7033 f03c ab1d 94bd
00000050: 3957 9b3d 993c 473c b993 5fbc 476a afbe
00000060: 8633 2ebd 122a b8bd 7f0f afbc e28f 94bd
00000070: 6614 3bbd 57f6 1ebe b7fb 2cbd c193 0bbc
00000080: 9d3e 373e 1e49 643e 5454 21bf 8977 683e
00000090: 39ad ab3e 6be1 85bb 9333 f53c b616 d8be
000000a0: caee 00bf 7eac c83e 6b73 e9bb 7007 9abd
000000b0: 02d9 383d 38d4 16bd c2f3 7cbd 509f 6fbb
000000c0: 19d2 563d cad2 853e aeec 0cbe f476 abbc
000000d0: b2e7 833d 6892 023d aab2 b1be ec08 9dbc
000000e0: 62c0 473d e87a f63b 7e56 02bd ce29 8c3d
000000f0: 69cf 873b bc12 f43c 0604 74be 091b 67bd
00000100: 0d5f 86bd 4f23 17bd fb2b acbe e6bd a2bc
00000110: d3bd b5bd 86d0 ee3c 5cd4 bcbc 2f06 6dbd
00000120: a206 6d3d 6bd3 23bd 2ed7 8ebd 6d9d 3f3d
00000130: 15e8 9ebc 3fa6 ffbc 8856 033f 34ce dd3c
00000140: 86ea 9a3d ad6f 48bc 7622 5abf ca41 02ba
00000150: 978e fbbc 1c53 e8bd fa8f 9d3d 00e8 2c3c
00000160: 69b9 353b b70d 9ebd 868b c63d c539 993b
00000170: 3626 7cbd d065 053c 2cbf 933d 3339 4b3d
00000180: c8a8 43bd dead edbc 114b 68bc 1741 7ebe
00000190: b698 99bd 6d46 883d 8703 78bc fabe 8dbb
000001a0: caf8 68bd 7705 24bd 8eb5 b03d 5d26 423d
000001b0: 38eb 973c 4329 76be e2b6 6ebd 90d6 97bc
000001c0: a3a4 783d 8969 37bd 5092 e03c 0686 94bd
000001d0: 5a86 56be c468 243d 6d67 473d 8262 003d
000001e0: 510a 373c 28a3 6abc 84b3 2e3d 9694 adbd
000001f0: 46da 15be 1a66 96bc 789a ebbc 1ac5 183e
00000200: b682 0d3c a755 babc fb54 07bd c3da e5ba
00000210: d32e c6bc 5037 6f3d ffcd 87bd a352 a7bc
00000220: 0845 373e 7759 8fbc da3c 9e3e c05c 10bd
00000230: b335 1bbd 4748 933c ac33 31bc 23e8 5c3d
00000240: 4b90 34bd 6ea2 81bd 9a84 d33a f93c 523c
00000250: 24ac ebbc 576d d83d ed9b 4c3c b596 433d
00000260: d7d9 69bc 2017 0fbe 3bda 3fbc 9731 223d
00000270: 7b6c 923b aed1 e9bf 65d1 423d e7b2 c73d
00000280: 6d1a bebc 10d3 5cbd b5ba 653d 27f8 03bd
00000290: a3e8 55bf b3db 3a3d 01e8 623d 9dd0 1b3e
000002a0: c3c4 60bd 7fd3 dc3c 8d91 31bc b2c4 1dbd
000002b0: ed9f 86b9 400b f3bd 9254 c5bd 99b3 59bc
000002c0: 7e6b 06bc a710 fa3c e149 653c 0e24 bb3d
000002d0: 4ebe 6fbc 2663 68ba 738d 523c bbc3 333d
000002e0: e855 cbbe 08c5 9dbf ef3e 893e f127 733c
000002f0: dfe1 ca3c 0e2d eabe e597 57bf 8b2b 4cbf
00000300: d7a1 fabc 5086 b03c 134a ea3c 713f a73d
00000310: d320 5e3c 7b2d df3c 9a84 c9bc a03f e23e
00000320: 0a3a bc3c ebd3 c83c c43d f03c 49be babc
00000330: fa90 8dbe 30dd 0bbe 2a76 dabc 6fb4 cebc
00000340: 9112 40bc d045 c8bc e127 d43c b0f0 1fbc
00000350: 7e43 b7bd 972b 0a3c ea6f 5e3c 2797 9e3b
00000360: cb07 a7be ceed c4bd ed05 023d 4532 6bbc
00000370: be13 4b3c e457 dbbc 257b 06bb add8 533c
00000380: e686 02be fb9f 1e3c 71a8 9fbc 040c 073b
00000390: 5818 403f 527b 5abd 2915 35bd 23a8 e6bb
000003a0: af22 0a3e 80c8 70bc c63b 233d 7599 f1bd
000003b0: 1e81 38bc b93a 673d d4f0 95bd 9260 0e3d
000003c0: f7f5 00be 2cb4 aebb e148 5fbd cf8c c8bc
000003d0: 0085 c5bc 7981 a7bd 80ba 18bc 4cfa 69bd
000003e0: 571c 6abc ef63 1bbe 4d18 a33d ee8d 313d
000003f0: b966 15bc 75d2 5cbe e70f 853d 82b2 8a3c
0.014568255 -0.035555337 -0.0034915053 0.027981061 -0.018430408 -0.061569188 0.054002747 0.4076106
-0.10381461 -0.03719319 0.0020464438 -0.016183374 0.052594587 -0.0149819385 0.29006368 0.006060265
-0.020257322 -1.3006461 0.029321402 -0.07232221 0.07584996 0.012160444 -0.01364606 -0.3426077
-0.042529605 -0.08992399 -0.021369694 -0.07254006 -0.04567375 -0.15523659 -0.04223224 -0.008519114
0.17894979 0.22293517 -0.630193 0.22701849 0.33530596 -0.00408571 0.029931819 -0.42204827
-0.50364363 0.391941 -0.0071243546 -0.0752095 0.04512883 -0.03682348 -0.061755903 -0.0036563464
0.05244646 0.26137382 -0.13762161 -0.020930745 0.06440677 0.031877905 -0.34706622 -0.019169293
0.048767455 0.007521976 -0.031820767 0.06843911 0.0041445983 0.02979409 -0.2382966 -0.056422267
-0.06561098 -0.036898907 -0.33627304 -0.019865941 -0.08874097 0.029152166 -0.02305048 -0.057867225
0.057867654 -0.039996546 -0.06974636 0.046780992 -0.019397775 -0.031207202 0.5130391 0.027075864
0.07564263 -0.012233657 -0.85208833 -0.000496891 -0.03070764 -0.11343977 0.07693477 0.01055336
0.0027728921 -0.0771746 0.09694581 0.004676076 -0.06155988 0.00814195 0.072141975 0.049615096
-0.047768384 -0.02901357 -0.0141780535 -0.24829517 -0.074998304 0.06654058 -0.01513756 -0.0043257447
-0.05687789 -0.040044274 0.08628379 0.047399867 0.018544778 -0.24039178 -0.05827988 -0.018534929
0.060703885 -0.04477838 0.027413517 -0.072521254 -0.20949689 0.040138975 0.04868262 0.031343944
0.011171893 -0.014321126 0.04265167 -0.08475606 -0.14634046 -0.018359233 -0.02876018 0.14918938
0.008637121 -0.02274592 -0.033040028 -0.001753651 -0.02419225 0.05840236 -0.066310875 -0.020425146
0.17897427 -0.017498715 0.309058 -0.035244703 -0.03789301 0.0179788 -0.010815542 0.05393232
-0.04408292 -0.06329809 0.0016137541 0.01283192 -0.028768606 0.1056773 0.0124883475 0.047751147
-0.0142731285 -0.13973665 -0.011709745 0.039598074 0.0044684983 -1.8267114 0.047562975 0.0975092
-0.02320596 -0.053912222 0.05608626 -0.03221908 -0.835581 0.045619678 0.055397037 0.15216298
-0.054875147 0.026956318 -0.010837925 -0.03851766 -0.00025677626 -0.1186738 -0.09635271 -0.013287448
-0.008204339 0.030525519 0.013994665 0.09137736 -0.0146327745 -0.0008864872 0.012851107 0.043887835
-0.3971398 -1.2325754 0.26805827 0.014841066 0.024765907 -0.457375 -0.8421615 -0.7975394
-0.03059475 0.02154842 0.028599774 0.08166397 0.013557631 0.027243366 -0.024599362 0.44189167
0.022976894 0.024515113 0.029326327 -0.022795813 -0.2764967 -0.13658595 -0.026667673 -0.025232522
-0.011723177 -0.024447352 0.025897922 -0.009761974 -0.0894842 0.008433244 0.013576487 0.004839796
-0.32623133 -0.0961567 0.031743933 -0.014355247 0.012394844 -0.026775308 -0.0020520177 0.0129300775
-0.12746772 0.009681697 -0.019489499 0.0020606527 0.75037146 -0.053340264 -0.044209633 -0.0070390864
0.13489793 -0.01469624 0.039851926 -0.11796848 -0.011261253 0.056452487 -0.07321325 0.034760065
-0.12593828 -0.0053315368 -0.054512862 -0.024481205 -0.02411127 -0.08178992 -0.009321809 -0.057123467
-0.014288983 -0.1517484 0.079636194 0.043348245 -0.009118729 -0.21564658 0.06497174 0.016930822

fc3.bias f4 [3]
00000000: 5e3f 1dbf 4524 41bf 2e36 02bf
-0.61424816 -0.7544597 -0.5086392

exp_avg f4 [200, 5]
00000000: 0400 0000 0400 0000 0400 0080 0400 0000
00000010: 0400 0080 2397 cb35 710e 5039 4309 eeb4
00000020: aae3 d539 aae3 d5b9 0400 0080 0400 0000
00000030: 0400 0080 0400 0080 0400 0000 3f5b b3b8
00000040: 059b aab8 544b bbb5 d996 9037 e896 90b7
00000050: 0400 0000 0400 0000 0400 0000 0400 0080
00000060: 0400 0000 a461 0937 b48e dcb5 6091 a439
00000070: 183a 563a 163a 56ba e456 10ba 55b0 c4b9
00000080: 06a0 7bba 4040 43b9 3c40 4339 5f64 11ba
00000090: 80ff b6b9 5adf 3736 b886 6638 c886 66b8
000000a0: 0400 0000 0400 0000 0400 0000 0400 0080
000000b0: 0400 0000 0b95 833b 9e0d 763b 84e4 563b
000000c0: a52c ee3a a52c eeba 0400 0000 0400 0000
000000d0: 0400 0080 0400 0080 0400 0000 0400 0000
000000e0: 0400 0000 0400 0000 0400 0000 0400 0080
000000f0: 926c 7539 3279 e437 9a6d e739 1aa1 cf38
00000100: 00a1 cfb8 3672 3c38 6337 283b 5381 5e38
00000110: b706 ca3a b806 caba 0400 0000 0400 0000
00000120: 0400 0000 0400 0000 0400 0080 0400 0000
00000130: 0400 0080 0400 0000 0400 0000 0400 0080
00000140: 0400 0000 0400 0000 0400 0000 0400 0080
00000150: 0400 0000 0e1f 922d 539d 1531 e5f4 bf8f
00000160: 72c4 ceb7 72c4 ce37 bd0f 6e36 cc00 6739
00000170: 3f6e 8fba f446 50b8 f246 5038 de3a b83b
00000180: e610 bd3b 8c91 b13b 58d1 6c3a 58d1 6cba
00000190: 0400 0000 0400 0000 0400 0000 0400 0000
000001a0: 0400 0080 4436 bc37 1ad8 8ab8 afc0 0f39
000001b0: 5888 6e39 5c88 6eb9 0400 0000 0400 0000
000001c0: 0400 0000 0400 0080 0400 0000 0000 0000
000001d0: 0000 0000 0000 0000 0000 0000 0000 0000
000001e0: 2d94 db3a 5d32 b63a a2cc a439 4671 59ba
000001f0: 4471 593a 0400 0080 0400 0080 0400 0000
00000200: 0400 0000 0400 0080 0400 0000 0400 0000
00000210: 0400 0000 0400 0000 0400 0080 061a 5cb9
00000220: 8f6e 2938 3a6e 9fb8 7318 2c39 7318 2cb9
00000230: 0400 0000 0400 0080 0400 0080 0400 0000
00000240: 0400 0080 cceb ac35 fc81 0fb9 ecaa 05bb
00000250: 39ee 47ba 39ee 473a 2c25 c3b9 389a 8fb9
00000260: a774 83ba b5ad 6938 b8ad 69b8 d180 0939
00000270: 9aa0 4439 62c5 1a37 d2cd e0b9 d2cd e039
00000280: ae6f cc38 62ed 9939 3289 32b8 2a13 503a
00000290: 2813 50ba 3efd 0839 d454 e038 6a22 23b9
000002a0: c8da 0a3a c8da 0aba 0000 0000 0000 0000
000002b0: 0000 0000 0000 0000 0000 0000 0400 0000
000002c0: 0400 0000 0400 0000 0400 0000 0400 0080
000002d0: 98dc 1334 0ce2 6336 450c 2eb6 ae15 1fba
000002e0: ac15 1f3a 0400 0000 0400 0000 0400 0000
000002f0: 0400 0080 0400 0000 0400 0000 0400 0000
00000300: 0400 0000 0400 0080 0400 0000 0400 0000
00000310: c082 af31 0400 0000 ddfc f7b8 ddfc f738
00000320: 8500 edb7 2b51 a9b9 5308 1eb9 add3 d9b9
00000330: aed3 d939 74ba 913b b30b 783b 86e1 903b
00000340: 0c6a 9f38 e469 9fb8 0000 0000 0000 0000
00000350: 0000 0000 0000 0000 0000 0000 0400 0000
00000360: 0400 0000 0400 0000 0400 0000 0400 0080
00000370: 0400 0000 0400 0000 0400 0000 0400 0000
00000380: 0400 0080 d32d 1139 7c41 c639 8015 823a
00000390: de02 c5b9 dd02 c539 7fb2 6eb8 fe02 2c38
000003a0: f5ad a339 4ebb 70b9 4abb 7039 69a6 55b8
000003b0: 5a27 25ba b4fe 2db7 185d 9ab9 185d 9a39
000003c0: 07d5 4537 4863 76b4 3b39 8038 fe23 0e39
000003d0: fe23 0eb9 e25d 4fb9 75a5 7fb9 83a9 003a
000003e0: 63cf 0a3a 63cf 0aba 573e 4bb9 76a6 3534
000003f0: 8aec c0ba e75c 373a e75c 37ba 0400 0000
6e-45 6e-45 -6e-45 6e-45 -6e-45 1.5168665e-06 0.00019841806 -4.4337693e-07
0.0004079615 -0.0004079615 -6e-45 6e-45 -6e-45 -6e-45 6e-45 -8.552381e-05
-8.135106e-05 -1.3954509e-06 1.7236382e-05 -1.7236409e-05 6e-45 6e-45 6e-45 -6e-45
6e-45 8.18857e-06 -1.6432809e-06 0.0003138883 0.0008172109 -0.00081721076 -0.0005506112 -0.0003751541
-0.00095987355 -0.00018620584 0.00018620578 -0.00055462675 -0.00034904107 2.7399133e-06 5.496174e-05 -5.4961798e-05
6e-45 6e-45 6e-45 -6e-45 6e-45 0.00401557 0.0037544738 0.0032790015
0.0018171264 -0.0018171264 6e-45 6e-45 -6e-45 -6e-45 6e-45 6e-45
6e-45 6e-45 6e-45 -6e-45 0.00023405466 2.7236154e-05 0.00044141413 9.900537e-05
-9.900518e-05 4.492906e-05 0.0025667779 5.3049367e-05 0.0015413378 -0.0015413379 6e-45 6e-45
6e-45 6e-45 -6e-45 6e-45 -6e-45 6e-45 6e-45 -6e-45
6e-45 6e-45 6e-45 -6e-45 6e-45 1.661207e-11 2.1771782e-09 -1.8928384e-29
-2.464859e-05 2.464859e-05 3.5473925e-06 0.00022030174 -0.001094289 -4.9657145e-05 4.9657137e-05 0.005622252
0.0057698367 0.005418962 0.000903388 -0.000903388 6e-45 6e-45 6e-45 6e-45
-6e-45 2.2436616e-05 -6.620605e-05 0.00013709323 0.00022748241 -0.00022748247 6e-45 6e-45
6e-45 -6e-45 6e-45 0.0 0.0 0.0 0.0 0.0
0.0016752534 0.0013900507 0.0003143298 -0.0008294772 0.0008294771 -6e-45 -6e-45 6e-45
6e-45 -6e-45 6e-45 6e-45 6e-45 6e-45 -6e-45 -0.0002099053
4.0395706e-05 -7.602242e-05 0.00016412306 -0.00016412306 6e-45 -6e-45 -6e-45 6e-45
-6e-45 1.2883625e-06 -0.00013685966 -0.0020396067 -0.00076267455 0.00076267455 -0.00037220994 -0.00027389987
-0.0010029272 5.5713306e-05 -5.5713317e-05 0.00013113326 0.00018751845 9.225072e-06 -0.00042877957 0.00042877957
9.74828e-05 0.00029359298 -4.256628e-05 0.0007937426 -0.0007937425 0.00013064311 0.00010696953 -0.00015557712
0.0005296883 -0.0005296883 0.0 0.0 0.0 0.0 0.0 6e-45
6e-45 6e-45 6e-45 -6e-45 1.3770693e-07 3.3957213e-06 -2.5935162e-06 -0.0006068599
0.0006068598 6e-45 6e-45 6e-45 -6e-45 6e-45 6e-45 6e-45
6e-45 -6e-45 6e-45 6e-45 5.108035e-09 6e-45 -0.00011824977 0.00011824977
-2.8252844e-05 -0.00032294667 -0.00015071155 -0.00041547176 0.0004154718 0.004447276 0.003784877 0.0044214157
7.6014636e-05 -7.6014345e-05 0.0 0.0 0.0 0.0 0.0 6e-45
6e-45 6e-45 6e-45 -6e-45 6e-45 6e-45 6e-45 6e-45
-6e-45 0.00013845348 0.00037814293 0.000992462 -0.00037576904 0.000375769 -5.690986e-05 4.1010782e-05
0.0003121939 -0.0002295796 0.00022957954 -5.093814e-05 -0.00063001143 -1.0370906e-05 -0.0002944253 0.0002944253
1.1791714e-05 -2.2946654e-07 6.1141756e-05 0.00013555583 -0.00013555583 -0.00019776032 -0.00024380333 0.0004908072
0.0005295185 -0.0005295185 -0.00019382812 1.6917497e-07 -0.0014718932 0.00069947395 -0.00069947395 6e-45

exp_avg_sq f4 [200, 5]
00000000: 15b7 7d1b c9a6 311e 3888 e71c 7429 181f
00000010: 7429 181f f627 3b33 478b 6536 2a14 7730
00000020: 1cac ba36 1cac ba36 8678 f50e 0992 a70c
00000030: a0cc 470f 31c5 0f11 31c5 0f11 0318 7f36
00000040: 63b0 3437 e924 c234 fc1b 5f36 fa1b 5f36
00000050: 5586 9321 d96d d820 fa84 8222 f14a f122
00000060: f14a f122 4fd8 f536 f128 c433 d724 6437
00000070: 962a 1437 962a 1437 d600 ff37 45af c837
00000080: 8fc7 d337 f94a 4437 f74a 4437 30fc b336
00000090: 744a 0337 4a46 7734 914e 9336 924e 9336
000000a0: f867 4617 3f3a 371b bb74 1c1d ddc3 081d
000000b0: ddc3 081d 757b 5839 ae06 5639 d6b3 5b39
000000c0: ce8a d438 cf8a d438 dc3c 770f bb89 b213
000000d0: 48c5 c10f 94d7 0e14 94d7 0e14 22b4 1b0e
000000e0: 7ac6 6c0d 22b4 1b0e c24f c70d c24f c70d
000000f0: b35d 8336 78e9 4a33 df8f de36 342a 9a36
00000100: 332a 9a36 35b8 4935 b6a1 dc36 08aa 1634
00000110: 87ef 5a36 86ef 5a36 74d1 3815 1130 3515
00000120: 3594 4a15 b325 5915 b325 5915 1ae4 051b
00000130: a685 0f1c 1d13 c91c 01c6 b01c 01c6 b01c
00000140: 84fe bf0f 96f8 6f0f 9075 ba0f edd6 650f
00000150: edd6 650f 0a09 162d 8fbc 852d bc45 0f2b
00000160: fab4 ba34 fab4 ba34 d9e3 1732 ec9a f235
00000170: 8567 1837 07f8 1937 07f8 1937 c04a 4839
00000180: a623 4739 b1c1 4239 ceb5 8137 ceb5 8137
00000190: 3862 b611 d2db d115 4ee2 1613 d48b 9a15
000001a0: d48b 9a15 73c7 ac37 9539 c737 e3fd 9e37
000001b0: 6894 a336 6794 a336 b20b c80b 8035 eb0d
000001c0: 4089 c50f acd5 8f11 acd5 8f11 0000 0000
000001d0: 0000 0000 0000 0000 0000 0000 0000 0000
000001e0: 79c9 8a37 a319 8937 e941 9f35 7947 c736
000001f0: 7947 c736 4581 460d f3ce 230f 060c aa10
00000200: 6139 dd10 6139 dd10 f898 fd0d c964 040e
00000210: e8f9 520e 2910 000f 2910 000f fefe 8935
00000220: bca8 dc33 b7ea 3f36 fbf3 7f36 fbf3 7f36
00000230: 42a6 040d 06fc 3d13 5414 ac1c d854 961d
00000240: d854 961d 2cf6 7433 f504 0636 78fe c737
00000250: 1b05 8137 1b05 8137 aaf7 d537 930d ad37
00000260: 7215 be37 b941 0837 b941 0837 c07f a536
00000270: 013d c836 231f 0733 fb31 b936 fd31 b936
00000280: 2d84 1136 e27c a436 a9a5 8535 59cb ee36
00000290: 59cb ee36 c768 e337 d837 a837 f83b fa37
000002a0: a904 aa36 a904 aa36 0000 0000 0000 0000
000002b0: 0000 0000 0000 0000 0000 0000 6d08 121a
000002c0: 0e87 0b1a 85a7 111a 2050 9f19 2050 9f19
000002d0: 2a00 ab2e 0dfb 3531 c4f0 972f 0aaf 8137
000002e0: 0aaf 8137 8de9 0c11 2779 1b11 f1cb 3010
000002f0: 0bb5 2514 0bb5 2514 ce48 6a10 39ca e00f
00000300: b27e 9010 07e6 5110 07e6 5110 a798 a32d
00000310: e857 f32e 066d 2329 393c 2736 393c 2736
00000320: afa5 7d32 4eb0 7e36 070e b634 26f1 8336
00000330: 26f1 8336 c383 6839 ab6b 5d39 dc5e 5d39
00000340: 2f53 5038 2f53 5038 0000 0000 0000 0000
00000350: 0000 0000 0000 0000 0000 0000 76d3 7215
00000360: d321 6a15 bcec cb15 0958 bf15 0958 bf15
00000370: 1269 9916 43ca 141a f07a 001c 214b cb23
00000380: 214b cb23 d003 4b38 afa2 4c38 f129 c437
00000390: 2b7b 4a37 307b 4a37 47dc 3d37 15e1 2237
000003a0: e414 7037 73f4 1337 72f4 1337 a601 ee35
000003b0: 5a9d 3736 f097 8333 5b09 bc36 5b09 bc36
000003c0: 5285 0835 fbe3 b92f 653b be31 a460 c236
000003d0: a460 c236 d7a7 4a38 e0ff 2538 0ff0 3538
000003e0: 36a2 0337 36a2 0337 497e 1737 83c2 4032
000003f0: 2980 8837 c1a2 0c37 c1a2 0c37 1038 fa12
2.0986826e-22 9.404792e-21 1.5321509e-21 3.222154e-20 3.222154e-20 4.3575675e-08 3.420473e-06 8.988673e-10
5.563268e-06 5.563268e-06 6.0513223e-30 2.5818316e-31 9.850867e-30 1.1341475e-28 1.1341475e-28 3.8011938e-06
1.0769904e-05 3.6162172e-07 3.3245879e-06 3.3245874e-06 9.996665e-19 3.6664514e-19 3.5377365e-18 6.540253e-18
6.540253e-18 7.3267506e-06 9.1344084e-08 1.3598436e-05 8.831403e-06 8.831403e-06 3.0398758e-05 2.3923474e-05
2.5246087e-05 1.1699966e-05 1.16999645e-05 5.363974e-06 7.825543e-06 2.3029239e-07 4.3900877e-06 4.390088e-06
6.4108478e-25 1.5156226e-22 2.0706776e-21 1.810071e-21 1.810071e-21 0.00020645357 0.00020411119 0.00020952462
0.00010134802 0.00010134803 1.2189761e-29 4.506933e-27 1.910726e-29 7.211683e-27 7.211683e-27 1.9191956e-30
7.296202e-31 1.9191956e-30 1.2283523e-30 1.2283523e-30 3.9150123e-06 4.724413e-08 6.6328644e-06 4.5944707e-06
4.5944703e-06 7.514639e-07 6.5753366e-06 1.4031696e-07 3.2623955e-06 3.2623952e-06 3.7323733e-26 3.6590577e-26
4.091049e-26 4.385254e-26 4.385254e-26 1.1075206e-22 4.748747e-22 1.3306005e-21 1.1697886e-21 1.1697886e-21
1.893209e-29 1.1831486e-29 1.83863e-29 1.1331965e-29 1.1331965e-29 8.52852e-12 1.5204086e-11 5.090058e-13
3.4776878e-07 3.4776878e-07 8.841163e-09 1.8075493e-06 9.0840085e-06 9.177259e-06 9.177259e-06 0.00019101333
0.00018991399 0.00018573437 1.5462658e-05 1.5462658e-05 2.877507e-28 8.476124e-26 1.9044239e-27 6.2420715e-26
6.2420715e-26 2.0596874e-05 2.3749462e-05 1.8953293e-05 4.8750553e-06 4.875055e-06 7.7054795e-32 1.4495873e-30
1.9478567e-29 2.2693107e-28 2.2693107e-28 0.0 0.0 0.0 0.0 0.0
1.65447e-05 1.634361e-05 1.1865606e-06 5.9389827e-06 5.9389827e-06 6.1169063e-31 8.0763774e-30 6.70717e-29
8.7257536e-29 8.7257536e-29 1.5629155e-30 1.6318782e-30 2.6004824e-30 6.3139996e-30 6.3139996e-30 1.0281508e-06
1.0275241e-07 2.859784e-06 3.8139976e-06 3.8139976e-06 4.0875766e-31 2.397941e-27 1.138726e-21 3.9792396e-21
3.9792396e-21 5.703457e-08 1.9970441e-06 2.3841145e-05 1.5380376e-05 1.5380376e-05 2.5506906e-05 2.0629528e-05
2.2659751e-05 8.121534e-06 8.121534e-06 4.9322553e-06 5.9675663e-06 3.1460456e-08 5.519248e-06 5.519249e-06
2.168362e-06 4.902119e-06 9.957486e-07 7.1166255e-06 7.1166255e-06 2.71093e-05 2.0053165e-05 2.9830248e-05
5.0669373e-06 5.0669373e-06 0.0 0.0 0.0 0.0 0.0 3.01989e-23
2.8853623e-23 3.0120618e-23 1.6472577e-23 1.6472577e-23 7.776209e-11 2.6481672e-09 2.7637814e-10 1.5459507e-05
1.5459507e-05 1.1116021e-28 1.2264677e-28 3.486699e-29 8.3660756e-27 8.3660756e-27 4.620445e-29 2.2165999e-29
5.699319e-29 4.139519e-29 4.139519e-29 1.8598746e-11 1.1065976e-10 3.6287833e-14 2.4919993e-06 2.4919993e-06
1.476421e-08 3.7951572e-06 3.3910348e-07 3.9321776e-06 3.9321776e-06 0.00022174329 0.00021116312 0.0002111154
4.9668535e-05 4.9668535e-05 0.0 0.0 0.0 0.0 0.0 4.9038324e-26
4.7282606e-26 8.236455e-26 7.728318e-26 7.728318e-26 2.4784792e-25 3.0769068e-23 4.251054e-22 2.2041122e-17
2.2041122e-17 4.8402522e-05 4.87889e-05 2.3384551e-05 1.20688155e-05 1.206882e-05 1.1316565e-05 9.708358e-06
1.4309979e-05 8.818798e-06 8.818797e-06 1.7732862e-06 2.7360716e-06 6.1278e-08 5.6039257e-06 5.6039257e-06
5.0857955e-07 3.3813294e-10 5.53648e-09 5.792901e-06 5.792901e-06 4.8316866e-05 3.9577368e-05 4.3377335e-05
7.845976e-06 7.845976e-06 9.029704e-06 1.1220098e-08 1.6272143e-05 8.382544e-06 8.382544e-06 1.5791039e-27

exp_avg f4 [200]
00000000: 0400 0000 4be5 053a 0400 0000 ee23 dcb8
00000010: 0400 0000 df29 673a 1440 393a 5433 12ba
00000020: 0400 0000 2c80 523b 0400 0000 0400 0000
00000030: 8030 abb7 802c 1d3b 0400 0000 0400 0000
00000040: 0400 0000 7c58 de37 94f2 8cba de8c b83b
00000050: 0400 0000 2e33 41ba 0400 0000 0000 0000
00000060: ba96 6b3b 0400 0000 0400 0000 2bfc 4d39
00000070: 0400 0000 d168 05bb 487c 4238 a6ab 383a
00000080: 5426 ab3a 0356 01b9 0000 0000 0400 0000
00000090: c892 90ba 0400 0000 0400 0000 9fd9 0339
000000a0: 33ed 04ba 52cd e43b 0000 0000 0400 0000
000000b0: 0400 0000 09f1 55b9 fd90 4e3a 980d 11ba
000000c0: 0af5 f2b9 fc3e c6ba b489 c0ba 0400 0000
000000d0: 0400 0000 0400 0000 0bf6 8138 0dcd 84b9
000000e0: b6c9 0cbb a9d7 013b ab5d aa39 0400 0000
000000f0: eb2c 14bb d0f2 1d3a c91a 7a3a 0400 0000
00000100: 48c8 96ba 0400 0000 0400 0000 0400 0000
00000110: 0400 0000 0400 0000 0400 0000 0d03 8ab9
00000120: c0b3 7e37 0400 0000 0400 0000 0400 0000
00000130: 0400 0000 0400 0000 b26e 25b9 0400 0000
00000140: 0400 0000 0400 0000 bf11 ddba 06f7 453a
00000150: defe c83a 0400 0000 e007 68ba 0400 0000
00000160: 0400 0000 4e85 3c3b da2c c83a 6846 f038
00000170: 0400 0000 9c73 6a38 0400 0000 d5ff c1ba
00000180: 27a9 c539 0400 0000 0400 0000 0400 0000
00000190: 1902 7eb9 f664 3639 0400 0000 ae43 be39
000001a0: 0400 0000 0400 0000 c719 653b 94cc 6238
000001b0: 0400 0000 7f83 373a acf1 df3a 0400 0000
000001c0: 540c 4339 fc73 4a3a c018 e739 0400 0000
000001d0: f6dc 38ba 8669 c139 0000 0000 0400 0000
000001e0: 487a d239 5885 a63a e5cb 2ebb d2f3 553a
000001f0: b4ac 8539 0400 0000 cee6 e93a f780 be3a
00000200: 0400 0000 0400 0000 0400 0000 4893 e239
00000210: 0400 0000 0400 0000 ae7e 99b7 0000 0000
00000220: 0400 0000 9201 a23a e875 f737 7984 c93a
00000230: 1a2c 81ba 6383 813a dc0f d2ba 0400 0000
00000240: 0400 0000 b38a 923a 378c 813b 9b5e 93ba
00000250: e442 843a 0400 0000 315b 65b8 0400 0000
00000260: 90e2 3439 0400 0000 100e b1ba 0400 0000
00000270: 0400 0000 4ade ab39 8a72 d4b9 0400 0000
00000280: 0400 0000 9255 83b9 0400 0000 0400 0000
00000290: 0400 0000 0400 0000 0400 0000 c4e2 9ab9
000002a0: 3d52 e03a 0000 0000 8f9b 883a 90f7 5339
000002b0: 0400 0000 3091 be38 0400 0000 34a5 3939
000002c0: c3a6 9bb8 0400 0000 0400 0000 0400 0000
000002d0: 0400 0000 1e00 5339 0000 0000 0400 0000
000002e0: 0400 0000 0400 0000 84b1 363a 5c5a 503b
000002f0: 68a1 693a 4717 ecb9 0400 0000 20a2 2637
00000300: 0400 0000 ae23 b4b9 1458 1c3a 71bb 153b
00000310: 0400 0000 34b6 7239 1559 89ba 0000 0000
6e-45 0.00051077147 6e-45 -0.0001049711 6e-45 0.000881819 0.00070667383 -0.00055771065
6e-45 0.0032119853 6e-45 6e-45 -2.0407373e-05 0.0023982823 6e-45 6e-45
6e-45 2.6505666e-05 -0.0010753446 0.005632027 6e-45 -0.0007369992 6e-45 0.0
0.0035947994 6e-45 6e-45 0.00019644263 6e-45 -0.0020356665 4.636895e-05 0.00070446206
0.0013057687 -0.0001233444 0.0 6e-45 -0.0011030072 6e-45 6e-45 0.00012574204
-0.0005070746 0.006982484 0.0 6e-45 6e-45 -0.00020403056 0.00078798813 -0.00055333367
-0.00046340405 -0.0015124972 -0.0014689476 6e-45 6e-45 6e-45 6.1970284e-05 -0.00025329777
-0.0021482534 0.0019812381 0.00032494715 6e-45 -0.002260978 0.00060252566 0.00095407345 6e-45
-0.001150378 6e-45 6e-45 6e-45 6e-45 6e-45 6e-45 -0.00026323684
1.5181431e-05 6e-45 6e-45 6e-45 6e-45 6e-45 -0.00015776863 6e-45
6e-45 6e-45 -0.0016866251 0.0007551763 0.0015334745 6e-45 -0.0008851271 6e-45
6e-45 0.002876598 0.0015272156 0.00011457206 6e-45 5.5897617e-05 6e-45 -0.0014800975
0.00037700796 6e-45 6e-45 6e-45 -0.00024224109 0.00017394483 6e-45 0.0003629005
6e-45 6e-45 0.0034957991 5.4073127e-05 6e-45 0.00070004904 0.0017085574 6e-45
0.00018601242 0.00077229715 0.00044078194 6e-45 -0.0007051969 0.0003689045 0.0 6e-45
0.00040145428 0.0012704534 -0.0026671824 0.0008161637 0.0002549641 6e-45 0.0017845274 0.0014534284
6e-45 6e-45 6e-45 0.00043215812 6e-45 6e-45 -1.8298011e-05 0.0
6e-45 0.0012360087 2.9499599e-05 0.0015374563 -0.0009855062 0.0009881075 -0.0016026455 6e-45
6e-45 0.0011180252 0.0039534825 -0.0011243405 0.0010090736 6e-45 -5.4682783e-05 6e-45
0.00017250539 6e-45 -0.0013508219 6e-45 6e-45 0.0003278128 -0.0004052113 6e-45
6e-45 -0.00025050022 6e-45 6e-45 6e-45 6e-45 6e-45 -0.00029542123
0.0017114353 0.0 0.0010422337 0.00020214752 6e-45 9.086949e-05 6e-45 0.00017704518
-7.422038e-05 6e-45 6e-45 6e-45 6e-45 0.00020122572 0.0 6e-45
6e-45 6e-45 0.0006969201 0.003179214 0.0008912296 -0.0004503077 6e-45 9.932119e-06
6e-45 -0.0003435886 0.00059640524 0.002284732 6e-45 0.00023146794 -0.0010478819 0.0

exp_avg_sq f4 [200]
00000000: e3a9 361f a219 0a37 bfac 4c11 7aaf 3d37
00000010: 352b 1a23 5c49 fe37 5652 4338 2462 5537
00000020: 1a75 1c1d 805b 7e39 751e 3014 22b4 1b0e
00000030: d16c 8a37 e6ff 5b37 2ab9 8c15 93fd ca1c
00000040: 1477 c20f 820d 1f35 c361 c937 8791 6339
00000050: c1df e315 6a03 0a38 a13a d511 0000 0000
00000060: c0ee e337 26c2 8111 40f1 2d0f 4005 bc36
00000070: 25d4 a71d ef8f d337 392e 2538 32de 8237
00000080: 2b5d 9037 eaff 0038 0000 0000 fcd3 121a
00000090: 57bc 6238 00ec 6c14 14e6 9410 198b 7736
000000a0: eab4 d236 3a87 8839 0000 0000 cba5 e215
000000b0: d407 df23 6562 6038 140e a437 9d32 0d37
000000c0: da8a 7c37 515e 7f38 3072 8f37 ba72 8a14
000000d0: 781c 8010 872d 190e 4a6c 7c36 ba66 cc37
000000e0: e993 d637 4f74 6c38 e351 4b37 7032 b30f
000000f0: 9367 fb38 91a7 9e37 6cfa 3038 54ea 9c22
00000100: f98d 9c39 7052 7f10 07ba 6b11 ad32 2f11
00000110: 5519 6b1f 42b2 d928 f984 542a e1dc 6e36
00000120: cb57 c338 e929 4114 50b1 1f18 e8ec a50f
00000130: 4edd 1c02 7b63 080f 43d4 2638 46ad 5420
00000140: 3473 1911 cb79 a924 6eb8 b938 2c54 9739
00000150: 87ea fc37 308f 7419 456c 8a37 1d4d 6d17
00000160: 5479 282a bcb9 b038 9455 8338 4f3c aa37
00000170: 3226 4518 d059 b136 98a9 ac11 641d 2c38
00000180: 8796 9837 b8a8 380e 0a15 8c11 c1ff 7216
00000190: 6bc1 d436 4fe9 a837 3e6c 2a12 3e0c 3637
000001a0: d829 ae10 e81a 0d14 bee6 2438 c12e 0838
000001b0: df9c ca16 113a c337 ace0 6437 934e e613
000001c0: 127a f836 cd36 0137 bc63 3637 1c41 a21a
000001d0: a31d b538 a292 1a38 0000 0000 d2f7 881a
000001e0: f7a7 0a38 d638 b237 6696 8a38 13dd 9a37
000001f0: 5196 9e38 0951 331c 9fd9 fb37 67e8 6037
00000200: c5a0 b714 fb87 352f 168f 8d18 5a84 ef36
00000210: 78a6 8f18 12d7 0311 2be8 1a38 0000 0000
00000220: d0b6 3612 d457 b638 f472 7437 0ef4 5638
00000230: ffc9 1337 8537 fb37 768e 4837 d622 830b
00000240: e2ea 7411 dc6f e037 a944 6c39 4fb3 dd37
00000250: 8aa5 a538 35b7 690f c95a e734 88c0 3f18
00000260: 709d 5538 b9fa 3a0f 0ed7 9338 a3dd 7f14
00000270: 95e6 0e0f 2529 c536 3254 0138 f8ab 8c13
00000280: d51a 0107 ef8b e337 2008 8814 4280 fd1d
00000290: 7ca6 f715 a908 9118 892f 8412 dec3 3436
000002a0: 5430 133a 0000 0000 7157 8d37 bebf c436
000002b0: 9c6f 1118 c3ba 2238 eb65 3d17 3904 3637
000002c0: f56c 2637 9b06 2a13 e9d0 2414 2837 4f11
000002d0: ec36 1d14 5473 9a36 0000 0000 f6b7 9614
000002e0: 6f30 6e17 e26b b30b e144 4437 00fd b938
000002f0: f0b5 9538 d265 5436 001f 2913 1994 db35
00000300: b6ea 5913 e65d 8136 0538 1d38 b4a6 5238
00000310: 3525 0a06 7a96 c437 045b ee37 0000 0000
3.8680526e-20 8.231409e-06 1.6145994e-28 1.1306134e-05 8.357506e-18 3.031332e-05 4.6568304e-05 1.27186395e-05
2.0706968e-21 0.00024257414 8.891736e-27 1.9191956e-30 1.6501554e-05 1.3112998e-05 5.683769e-26 1.3432786e-21
1.9175744e-29 5.925177e-07 2.4006591e-05 0.0002170262 9.203759e-26 3.2904944e-05 3.3641607e-28 0.0
2.7171685e-05 2.0472265e-28 8.5760216e-30 5.603448e-06 4.4423884e-21 2.5220184e-05 3.9382114e-05 1.5600675e-05
1.7209522e-05 3.0755917e-05 0.0 3.0363332e-23 5.4058004e-05 1.1961498e-26 5.87302e-29 3.6886834e-06
6.279549e-06 0.00026040693 0.0 9.154225e-26 2.4181024e-17 5.34974e-05 1.955688e-05 8.416039e-06
1.5052699e-05 6.0884577e-05 1.7100101e-05 1.397969e-26 5.053096e-29 1.8880627e-30 3.7613959e-06 2.436653e-05
2.5579664e-05 5.6375105e-05 1.2118809e-05 1.767019e-29 0.00011987905 1.8913097e-05 4.2194893e-05 4.253199e-18
0.00029860417 5.035339e-29 1.8595555e-28 1.3820682e-28 4.978414e-20 2.4169147e-14 1.8875517e-13 3.5593332e-06
9.314677e-05 9.752275e-27 2.0639788e-24 1.6361509e-29 1.1524581e-37 6.724477e-30 3.977517e-05 1.801443e-19
1.2105072e-28 7.349839e-17 8.85584e-05 0.00028863677 3.0149951e-05 1.2643421e-23 1.6501299e-05 7.667616e-25
1.4963492e-13 8.42693e-05 6.262507e-05 2.0293663e-05 2.5480937e-24 5.2854666e-06 2.7241335e-28 4.1035368e-05
1.8189907e-05 2.2760986e-30 2.2101072e-28 1.9629306e-25 6.340609e-06 2.0135803e-05 5.377596e-28 1.0850896e-05
6.869537e-29 7.123987e-27 3.9315542e-05 3.246847e-05 3.273386e-25 2.327285e-05 1.36421695e-05 5.8137643e-27
7.405187e-06 7.7017585e-06 1.0871267e-05 6.710682e-23 8.636273e-05 3.6853024e-05 0.0 5.664866e-23
3.3058193e-05 2.124572e-05 6.608367e-05 1.8461176e-05 7.562026e-05 5.9330867e-22 3.002287e-05 1.3405551e-05
1.854169e-26 1.6510164e-10 3.6592126e-24 7.138163e-06 3.7132724e-24 1.0400352e-28 3.6932684e-05 0.0
5.765441e-28 8.6947955e-05 1.4570298e-05 5.124887e-05 8.808914e-06 2.9947385e-05 1.1954098e-05 5.051178e-32
1.9320585e-28 2.675497e-05 0.00022532292 2.642875e-05 7.898647e-05 1.1523071e-29 4.3093158e-07 2.4783375e-24
5.0929782e-05 9.2187955e-30 7.049563e-05 1.291792e-26 7.045549e-30 5.8758474e-06 3.083441e-05 3.5510543e-27
9.712767e-35 2.712567e-05 1.3735695e-26 6.7101158e-21 1.0002517e-25 3.7490366e-24 8.342089e-28 2.69361e-06
0.00056148064 0.0 1.6849228e-05 5.863577e-06 1.879716e-24 3.8797745e-05 6.119783e-25 1.08490285e-05
9.91974e-06 2.1460273e-27 8.321084e-27 1.6346417e-28 7.937306e-27 4.6029836e-06 0.0 1.5218689e-26
7.696308e-25 6.9110616e-32 1.16985475e-05 8.868612e-05 7.138762e-05 3.164973e-06 2.1346083e-27 1.6359874e-06
2.7504972e-27 3.855431e-06 3.748389e-05 5.0223156e-05 2.598225e-35 2.3435092e-05 2.8414193e-05 0.0
